Model: "model"
__________________________________________________________________________________________________
Layer (type)                    Output Shape         Param #     Connected to                     
==================================================================================================
input_1 (InputLayer)            [(None, 64, 64, 1)]  0                                            
__________________________________________________________________________________________________
lambda (Lambda)                 (None, 16, 16, 1)    0           input_1[0][0]                    
__________________________________________________________________________________________________
lambda_1 (Lambda)               (None, 16, 16, 1)    0           input_1[0][0]                    
__________________________________________________________________________________________________
lambda_2 (Lambda)               (None, 16, 16, 1)    0           input_1[0][0]                    
__________________________________________________________________________________________________
lambda_3 (Lambda)               (None, 16, 16, 1)    0           input_1[0][0]                    
__________________________________________________________________________________________________
lambda_4 (Lambda)               (None, 16, 16, 1)    0           input_1[0][0]                    
__________________________________________________________________________________________________
lambda_5 (Lambda)               (None, 16, 16, 1)    0           input_1[0][0]                    
__________________________________________________________________________________________________
lambda_6 (Lambda)               (None, 16, 16, 1)    0           input_1[0][0]                    
__________________________________________________________________________________________________
lambda_7 (Lambda)               (None, 16, 16, 1)    0           input_1[0][0]                    
__________________________________________________________________________________________________
lambda_8 (Lambda)               (None, 16, 16, 1)    0           input_1[0][0]                    
__________________________________________________________________________________________________
lambda_9 (Lambda)               (None, 16, 16, 1)    0           input_1[0][0]                    
__________________________________________________________________________________________________
lambda_10 (Lambda)              (None, 16, 16, 1)    0           input_1[0][0]                    
__________________________________________________________________________________________________
lambda_11 (Lambda)              (None, 16, 16, 1)    0           input_1[0][0]                    
__________________________________________________________________________________________________
lambda_12 (Lambda)              (None, 16, 16, 1)    0           input_1[0][0]                    
__________________________________________________________________________________________________
lambda_13 (Lambda)              (None, 16, 16, 1)    0           input_1[0][0]                    
__________________________________________________________________________________________________
lambda_14 (Lambda)              (None, 16, 16, 1)    0           input_1[0][0]                    
__________________________________________________________________________________________________
lambda_15 (Lambda)              (None, 16, 16, 1)    0           input_1[0][0]                    
__________________________________________________________________________________________________
grid_mer_ain16 (GridMERAin16)   (None, 2)            1114402     lambda[0][0]                     
                                                                 lambda_1[0][0]                   
                                                                 lambda_2[0][0]                   
                                                                 lambda_3[0][0]                   
                                                                 lambda_4[0][0]                   
…
