Model: "model"
__________________________________________________________________________________________________
Layer (type)                    Output Shape         Param #     Connected to                     
==================================================================================================
input_1 (InputLayer)            [(None, 64, 64, 1)]  0                                            
__________________________________________________________________________________________________
lambda (Lambda)                 (None, 16, 16, 1)    0           input_1[0][0]                    
__________________________________________________________________________________________________
lambda_1 (Lambda)               (None, 16, 16, 1)    0           input_1[0][0]                    
__________________________________________________________________________________________________
lambda_2 (Lambda)               (None, 16, 16, 1)    0           input_1[0][0]                    
__________________________________________________________________________________________________
lambda_3 (Lambda)               (None, 16, 16, 1)    0           input_1[0][0]                    
__________________________________________________________________________________________________
lambda_4 (Lambda)               (None, 16, 16, 1)    0           input_1[0][0]                    
__________________________________________________________________________________________________
lambda_5 (Lambda)               (None, 16, 16, 1)    0           input_1[0][0]                    
__________________________________________________________________________________________________
lambda_6 (Lambda)               (None, 16, 16, 1)    0           input_1[0][0]                    
__________________________________________________________________________________________________
lambda_7 (Lambda)               (None, 16, 16, 1)    0           input_1[0][0]                    
__________________________________________________________________________________________________
lambda_8 (Lambda)               (None, 16, 16, 1)    0           input_1[0][0]                    
__________________________________________________________________________________________________
lambda_9 (Lambda)               (None, 16, 16, 1)    0           input_1[0][0]                    
__________________________________________________________________________________________________
lambda_10 (Lambda)              (None, 16, 16, 1)    0           input_1[0][0]                    
__________________________________________________________________________________________________
lambda_11 (Lambda)              (None, 16, 16, 1)    0           input_1[0][0]                    
__________________________________________________________________________________________________
lambda_12 (Lambda)              (None, 16, 16, 1)    0           input_1[0][0]                    
__________________________________________________________________________________________________
lambda_13 (Lambda)              (None, 16, 16, 1)    0           input_1[0][0]                    
__________________________________________________________________________________________________
lambda_14 (Lambda)              (None, 16, 16, 1)    0           input_1[0][0]                    
__________________________________________________________________________________________________
lambda_15 (Lambda)              (None, 16, 16, 1)    0           input_1[0][0]                    
__________________________________________________________________________________________________
grid_mer_ain16 (GridMERAin16)   (None, 2)            1114402     lambda[0][0]                     
__________________________________________________________________________________________________
grid_mer_ain16_1 (GridMERAin16) (None, 2)            1114402     lambda_1[0][0]                   
__________________________________________________________________________________________________
grid_mer_ain16_2 (GridMERAin16) (None, 2)            1114402     lambda_2[0][0]                   
__________________________________________________________________________________________________
grid_mer_ain16_3 (GridMERAin16) (None, 2)            1114402     lambda_3[0][0]                   
__________________________________________________________________________________________________
grid_mer_ain16_4 (GridMERAin16) (None, 2)            1114402     lambda_4[0][0]                   
__________________________________________________________________________________________________
grid_mer_ain16_5 (GridMERAin16) (None, 2)            1114402     lambda_5[0][0]                   
__________________________________________________________________________________________________
grid_mer_ain16_6 (GridMERAin16) (None, 2)            1114402     lambda_6[0][0]                   
__________________________________________________________________________________________________
grid_mer_ain16_7 (GridMERAin16) (None, 2)            1114402     lambda_7[0][0]                   
__________________________________________________________________________________________________
grid_mer_ain16_8 (GridMERAin16) (None, 2)            1114402     lambda_8[0][0]                   
__________________________________________________________________________________________________
grid_mer_ain16_9 (GridMERAin16) (None, 2)            1114402     lambda_9[0][0]                   
__________________________________________________________________________________________________
grid_mer_ain16_10 (GridMERAin16 (None, 2)            1114402     lambda_10[0][0]                  
__________________________________________________________________________________________________
grid_mer_ain16_11 (GridMERAin16 (None, 2)            1114402     lambda_11[0][0]                  
__________________________________________________________________________________________________
grid_mer_ain16_12 (GridMERAin16 (None, 2)            1114402     lambda_12[0][0]                  
__________________________________________________________________________________________________
grid_mer_ain16_13 (GridMERAin16 (None, 2)            1114402     lambda_13[0][0]                  
__________________________________________________________________________________________________
grid_mer_ain16_14 (GridMERAin16 (None, 2)            1114402     lambda_14[0][0]                  
__________________________________________________________________________________________________
grid_mer_ain16_15 (GridMERAin16 (None, 2)            1114402     lambda_15[0][0]                  
__________________________________________________________________________________________________
concatenate (Concatenate)       (None, 32)           0           grid_mer_ain16[0][0]             
                                                                 grid_mer_ain16_1[0][0]           
                                                                 grid_mer_ain16_2[0][0]           
                                                                 grid_mer_ain16_3[0][0]           
                                                                 grid_mer_ain16_4[0][0]           
…
