Model: "model"
__________________________________________________________________________________________________
Layer (type)                    Output Shape         Param #     Connected to                     
==================================================================================================
input_1 (InputLayer)            [(None, 64, 64, 1)]  0                                            
__________________________________________________________________________________________________
lambda (Lambda)                 (None, 8, 8, 1)      0           input_1[0][0]                    
__________________________________________________________________________________________________
lambda_1 (Lambda)               (None, 8, 8, 1)      0           input_1[0][0]                    
__________________________________________________________________________________________________
lambda_2 (Lambda)               (None, 8, 8, 1)      0           input_1[0][0]                    
__________________________________________________________________________________________________
lambda_3 (Lambda)               (None, 8, 8, 1)      0           input_1[0][0]                    
__________________________________________________________________________________________________
lambda_4 (Lambda)               (None, 8, 8, 1)      0           input_1[0][0]                    
__________________________________________________________________________________________________
lambda_5 (Lambda)               (None, 8, 8, 1)      0           input_1[0][0]                    
__________________________________________________________________________________________________
lambda_6 (Lambda)               (None, 8, 8, 1)      0           input_1[0][0]                    
__________________________________________________________________________________________________
lambda_7 (Lambda)               (None, 8, 8, 1)      0           input_1[0][0]                    
__________________________________________________________________________________________________
lambda_8 (Lambda)               (None, 8, 8, 1)      0           input_1[0][0]                    
__________________________________________________________________________________________________
lambda_9 (Lambda)               (None, 8, 8, 1)      0           input_1[0][0]                    
__________________________________________________________________________________________________
lambda_10 (Lambda)              (None, 8, 8, 1)      0           input_1[0][0]                    
__________________________________________________________________________________________________
lambda_11 (Lambda)              (None, 8, 8, 1)      0           input_1[0][0]                    
__________________________________________________________________________________________________
lambda_12 (Lambda)              (None, 8, 8, 1)      0           input_1[0][0]                    
__________________________________________________________________________________________________
lambda_13 (Lambda)              (None, 8, 8, 1)      0           input_1[0][0]                    
__________________________________________________________________________________________________
lambda_14 (Lambda)              (None, 8, 8, 1)      0           input_1[0][0]                    
__________________________________________________________________________________________________
lambda_15 (Lambda)              (None, 8, 8, 1)      0           input_1[0][0]                    
__________________________________________________________________________________________________
lambda_16 (Lambda)              (None, 8, 8, 1)      0           input_1[0][0]                    
__________________________________________________________________________________________________
lambda_17 (Lambda)              (None, 8, 8, 1)      0           input_1[0][0]                    
__________________________________________________________________________________________________
lambda_18 (Lambda)              (None, 8, 8, 1)      0           input_1[0][0]                    
__________________________________________________________________________________________________
lambda_19 (Lambda)              (None, 8, 8, 1)      0           input_1[0][0]                    
__________________________________________________________________________________________________
lambda_20 (Lambda)              (None, 8, 8, 1)      0           input_1[0][0]                    
__________________________________________________________________________________________________
lambda_21 (Lambda)              (None, 8, 8, 1)      0           input_1[0][0]                    
__________________________________________________________________________________________________
lambda_22 (Lambda)              (None, 8, 8, 1)      0           input_1[0][0]                    
__________________________________________________________________________________________________
lambda_23 (Lambda)              (None, 8, 8, 1)      0           input_1[0][0]                    
__________________________________________________________________________________________________
lambda_24 (Lambda)              (None, 8, 8, 1)      0           input_1[0][0]                    
__________________________________________________________________________________________________
lambda_25 (Lambda)              (None, 8, 8, 1)      0           input_1[0][0]                    
__________________________________________________________________________________________________
lambda_26 (Lambda)              (None, 8, 8, 1)      0           input_1[0][0]                    
__________________________________________________________________________________________________
lambda_27 (Lambda)              (None, 8, 8, 1)      0           input_1[0][0]                    
__________________________________________________________________________________________________
lambda_28 (Lambda)              (None, 8, 8, 1)      0           input_1[0][0]                    
__________________________________________________________________________________________________
lambda_29 (Lambda)              (None, 8, 8, 1)      0           input_1[0][0]                    
__________________________________________________________________________________________________
lambda_30 (Lambda)              (None, 8, 8, 1)      0           input_1[0][0]                    
__________________________________________________________________________________________________
lambda_31 (Lambda)              (None, 8, 8, 1)      0           input_1[0][0]                    
__________________________________________________________________________________________________
lambda_32 (Lambda)              (None, 8, 8, 1)      0           input_1[0][0]                    
__________________________________________________________________________________________________
lambda_33 (Lambda)              (None, 8, 8, 1)      0           input_1[0][0]                    
__________________________________________________________________________________________________
lambda_34 (Lambda)              (None, 8, 8, 1)      0           input_1[0][0]                    
__________________________________________________________________________________________________
lambda_35 (Lambda)              (None, 8, 8, 1)      0           input_1[0][0]                    
__________________________________________________________________________________________________
lambda_36 (Lambda)              (None, 8, 8, 1)      0           input_1[0][0]                    
__________________________________________________________________________________________________
lambda_37 (Lambda)              (None, 8, 8, 1)      0           input_1[0][0]                    
__________________________________________________________________________________________________
lambda_38 (Lambda)              (None, 8, 8, 1)      0           input_1[0][0]                    
__________________________________________________________________________________________________
lambda_39 (Lambda)              (None, 8, 8, 1)      0           input_1[0][0]                    
__________________________________________________________________________________________________
lambda_40 (Lambda)              (None, 8, 8, 1)      0           input_1[0][0]                    
__________________________________________________________________________________________________
lambda_41 (Lambda)              (None, 8, 8, 1)      0           input_1[0][0]                    
__________________________________________________________________________________________________
lambda_42 (Lambda)              (None, 8, 8, 1)      0           input_1[0][0]                    
__________________________________________________________________________________________________
lambda_43 (Lambda)              (None, 8, 8, 1)      0           input_1[0][0]                    
__________________________________________________________________________________________________
lambda_44 (Lambda)              (None, 8, 8, 1)      0           input_1[0][0]                    
__________________________________________________________________________________________________
lambda_45 (Lambda)              (None, 8, 8, 1)      0           input_1[0][0]                    
__________________________________________________________________________________________________
lambda_46 (Lambda)              (None, 8, 8, 1)      0           input_1[0][0]                    
__________________________________________________________________________________________________
lambda_47 (Lambda)              (None, 8, 8, 1)      0           input_1[0][0]                    
__________________________________________________________________________________________________
lambda_48 (Lambda)              (None, 8, 8, 1)      0           input_1[0][0]                    
__________________________________________________________________________________________________
lambda_49 (Lambda)              (None, 8, 8, 1)      0           input_1[0][0]                    
__________________________________________________________________________________________________
lambda_50 (Lambda)              (None, 8, 8, 1)      0           input_1[0][0]                    
__________________________________________________________________________________________________
lambda_51 (Lambda)              (None, 8, 8, 1)      0           input_1[0][0]                    
__________________________________________________________________________________________________
lambda_52 (Lambda)              (None, 8, 8, 1)      0           input_1[0][0]                    
__________________________________________________________________________________________________
lambda_53 (Lambda)              (None, 8, 8, 1)      0           input_1[0][0]                    
__________________________________________________________________________________________________
lambda_54 (Lambda)              (None, 8, 8, 1)      0           input_1[0][0]                    
__________________________________________________________________________________________________
lambda_55 (Lambda)              (None, 8, 8, 1)      0           input_1[0][0]                    
__________________________________________________________________________________________________
lambda_56 (Lambda)              (None, 8, 8, 1)      0           input_1[0][0]                    
__________________________________________________________________________________________________
lambda_57 (Lambda)              (None, 8, 8, 1)      0           input_1[0][0]                    
__________________________________________________________________________________________________
lambda_58 (Lambda)              (None, 8, 8, 1)      0           input_1[0][0]                    
__________________________________________________________________________________________________
lambda_59 (Lambda)              (None, 8, 8, 1)      0           input_1[0][0]                    
__________________________________________________________________________________________________
lambda_60 (Lambda)              (None, 8, 8, 1)      0           input_1[0][0]                    
__________________________________________________________________________________________________
lambda_61 (Lambda)              (None, 8, 8, 1)      0           input_1[0][0]                    
__________________________________________________________________________________________________
lambda_62 (Lambda)              (None, 8, 8, 1)      0           input_1[0][0]                    
__________________________________________________________________________________________________
lambda_63 (Lambda)              (None, 8, 8, 1)      0           input_1[0][0]                    
__________________________________________________________________________________________________
grid_mer_ain16 (GridMERAin16)   (None, 2)            5410        lambda[0][0]                     
__________________________________________________________________________________________________
grid_mer_ain16_1 (GridMERAin16) (None, 2)            5410        lambda_1[0][0]                   
__________________________________________________________________________________________________
grid_mer_ain16_2 (GridMERAin16) (None, 2)            5410        lambda_2[0][0]                   
__________________________________________________________________________________________________
grid_mer_ain16_3 (GridMERAin16) (None, 2)            5410        lambda_3[0][0]                   
__________________________________________________________________________________________________
grid_mer_ain16_4 (GridMERAin16) (None, 2)            5410        lambda_4[0][0]                   
__________________________________________________________________________________________________
grid_mer_ain16_5 (GridMERAin16) (None, 2)            5410        lambda_5[0][0]                   
__________________________________________________________________________________________________
grid_mer_ain16_6 (GridMERAin16) (None, 2)            5410        lambda_6[0][0]                   
__________________________________________________________________________________________________
grid_mer_ain16_7 (GridMERAin16) (None, 2)            5410        lambda_7[0][0]                   
__________________________________________________________________________________________________
grid_mer_ain16_8 (GridMERAin16) (None, 2)            5410        lambda_8[0][0]                   
__________________________________________________________________________________________________
grid_mer_ain16_9 (GridMERAin16) (None, 2)            5410        lambda_9[0][0]                   
__________________________________________________________________________________________________
grid_mer_ain16_10 (GridMERAin16 (None, 2)            5410        lambda_10[0][0]                  
__________________________________________________________________________________________________
grid_mer_ain16_11 (GridMERAin16 (None, 2)            5410        lambda_11[0][0]                  
__________________________________________________________________________________________________
grid_mer_ain16_12 (GridMERAin16 (None, 2)            5410        lambda_12[0][0]                  
__________________________________________________________________________________________________
grid_mer_ain16_13 (GridMERAin16 (None, 2)            5410        lambda_13[0][0]                  
__________________________________________________________________________________________________
grid_mer_ain16_14 (GridMERAin16 (None, 2)            5410        lambda_14[0][0]                  
__________________________________________________________________________________________________
grid_mer_ain16_15 (GridMERAin16 (None, 2)            5410        lambda_15[0][0]                  
__________________________________________________________________________________________________
grid_mer_ain16_16 (GridMERAin16 (None, 2)            5410        lambda_16[0][0]                  
__________________________________________________________________________________________________
grid_mer_ain16_17 (GridMERAin16 (None, 2)            5410        lambda_17[0][0]                  
__________________________________________________________________________________________________
grid_mer_ain16_18 (GridMERAin16 (None, 2)            5410        lambda_18[0][0]                  
__________________________________________________________________________________________________
grid_mer_ain16_19 (GridMERAin16 (None, 2)            5410        lambda_19[0][0]                  
__________________________________________________________________________________________________
grid_mer_ain16_20 (GridMERAin16 (None, 2)            5410        lambda_20[0][0]                  
__________________________________________________________________________________________________
grid_mer_ain16_21 (GridMERAin16 (None, 2)            5410        lambda_21[0][0]                  
__________________________________________________________________________________________________
grid_mer_ain16_22 (GridMERAin16 (None, 2)            5410        lambda_22[0][0]                  
__________________________________________________________________________________________________
grid_mer_ain16_23 (GridMERAin16 (None, 2)            5410        lambda_23[0][0]                  
__________________________________________________________________________________________________
grid_mer_ain16_24 (GridMERAin16 (None, 2)            5410        lambda_24[0][0]                  
__________________________________________________________________________________________________
grid_mer_ain16_25 (GridMERAin16 (None, 2)            5410        lambda_25[0][0]                  
__________________________________________________________________________________________________
grid_mer_ain16_26 (GridMERAin16 (None, 2)            5410        lambda_26[0][0]                  
__________________________________________________________________________________________________
grid_mer_ain16_27 (GridMERAin16 (None, 2)            5410        lambda_27[0][0]                  
__________________________________________________________________________________________________
grid_mer_ain16_28 (GridMERAin16 (None, 2)            5410        lambda_28[0][0]                  
__________________________________________________________________________________________________
grid_mer_ain16_29 (GridMERAin16 (None, 2)            5410        lambda_29[0][0]                  
__________________________________________________________________________________________________
grid_mer_ain16_30 (GridMERAin16 (None, 2)            5410        lambda_30[0][0]                  
__________________________________________________________________________________________________
grid_mer_ain16_31 (GridMERAin16 (None, 2)            5410        lambda_31[0][0]                  
__________________________________________________________________________________________________
grid_mer_ain16_32 (GridMERAin16 (None, 2)            5410        lambda_32[0][0]                  
__________________________________________________________________________________________________
grid_mer_ain16_33 (GridMERAin16 (None, 2)            5410        lambda_33[0][0]                  
__________________________________________________________________________________________________
grid_mer_ain16_34 (GridMERAin16 (None, 2)            5410        lambda_34[0][0]                  
__________________________________________________________________________________________________
grid_mer_ain16_35 (GridMERAin16 (None, 2)            5410        lambda_35[0][0]                  
__________________________________________________________________________________________________
grid_mer_ain16_36 (GridMERAin16 (None, 2)            5410        lambda_36[0][0]                  
__________________________________________________________________________________________________
grid_mer_ain16_37 (GridMERAin16 (None, 2)            5410        lambda_37[0][0]                  
__________________________________________________________________________________________________
grid_mer_ain16_38 (GridMERAin16 (None, 2)            5410        lambda_38[0][0]                  
__________________________________________________________________________________________________
grid_mer_ain16_39 (GridMERAin16 (None, 2)            5410        lambda_39[0][0]                  
__________________________________________________________________________________________________
grid_mer_ain16_40 (GridMERAin16 (None, 2)            5410        lambda_40[0][0]                  
__________________________________________________________________________________________________
grid_mer_ain16_41 (GridMERAin16 (None, 2)            5410        lambda_41[0][0]                  
__________________________________________________________________________________________________
grid_mer_ain16_42 (GridMERAin16 (None, 2)            5410        lambda_42[0][0]                  
__________________________________________________________________________________________________
grid_mer_ain16_43 (GridMERAin16 (None, 2)            5410        lambda_43[0][0]                  
__________________________________________________________________________________________________
grid_mer_ain16_44 (GridMERAin16 (None, 2)            5410        lambda_44[0][0]                  
__________________________________________________________________________________________________
grid_mer_ain16_45 (GridMERAin16 (None, 2)            5410        lambda_45[0][0]                  
__________________________________________________________________________________________________
grid_mer_ain16_46 (GridMERAin16 (None, 2)            5410        lambda_46[0][0]                  
__________________________________________________________________________________________________
grid_mer_ain16_47 (GridMERAin16 (None, 2)            5410        lambda_47[0][0]                  
__________________________________________________________________________________________________
grid_mer_ain16_48 (GridMERAin16 (None, 2)            5410        lambda_48[0][0]                  
__________________________________________________________________________________________________
grid_mer_ain16_49 (GridMERAin16 (None, 2)            5410        lambda_49[0][0]                  
__________________________________________________________________________________________________
grid_mer_ain16_50 (GridMERAin16 (None, 2)            5410        lambda_50[0][0]                  
__________________________________________________________________________________________________
grid_mer_ain16_51 (GridMERAin16 (None, 2)            5410        lambda_51[0][0]                  
__________________________________________________________________________________________________
grid_mer_ain16_52 (GridMERAin16 (None, 2)            5410        lambda_52[0][0]                  
__________________________________________________________________________________________________
grid_mer_ain16_53 (GridMERAin16 (None, 2)            5410        lambda_53[0][0]                  
__________________________________________________________________________________________________
grid_mer_ain16_54 (GridMERAin16 (None, 2)            5410        lambda_54[0][0]                  
__________________________________________________________________________________________________
grid_mer_ain16_55 (GridMERAin16 (None, 2)            5410        lambda_55[0][0]                  
__________________________________________________________________________________________________
grid_mer_ain16_56 (GridMERAin16 (None, 2)            5410        lambda_56[0][0]                  
__________________________________________________________________________________________________
grid_mer_ain16_57 (GridMERAin16 (None, 2)            5410        lambda_57[0][0]                  
__________________________________________________________________________________________________
grid_mer_ain16_58 (GridMERAin16 (None, 2)            5410        lambda_58[0][0]                  
__________________________________________________________________________________________________
grid_mer_ain16_59 (GridMERAin16 (None, 2)            5410        lambda_59[0][0]                  
__________________________________________________________________________________________________
grid_mer_ain16_60 (GridMERAin16 (None, 2)            5410        lambda_60[0][0]                  
__________________________________________________________________________________________________
grid_mer_ain16_61 (GridMERAin16 (None, 2)            5410        lambda_61[0][0]                  
__________________________________________________________________________________________________
grid_mer_ain16_62 (GridMERAin16 (None, 2)            5410        lambda_62[0][0]                  
__________________________________________________________________________________________________
grid_mer_ain16_63 (GridMERAin16 (None, 2)            5410        lambda_63[0][0]                  
__________________________________________________________________________________________________
concatenate (Concatenate)       (None, 128)          0           grid_mer_ain16[0][0]             
                                                                 grid_mer_ain16_1[0][0]           
                                                                 grid_mer_ain16_2[0][0]           
                                                                 grid_mer_ain16_3[0][0]           
                                                                 grid_mer_ain16_4[0][0]           
…
